src/CAE.pth (torch, 580981 bytes, 16 tensors)

encoder.0.weight f4 [32, 3, 9, 9]
0.027198657 0.015799994 -0.017106432 -0.03049852 -0.0037846905 -0.015949981 0.03289451 -0.0107418215
-0.057891563 -0.040688716 0.036913186 -0.04556874 0.04499675 -0.04963712 0.030172704 0.055065017
-0.032926578 -0.030701157 -0.035526764 0.03818309 -0.013281169 0.024090733 -0.036976177 0.065958545
-0.029376168 0.009926572 0.023625294 0.06591551 -0.034341782 0.011480189 -0.00013239184 0.021194635
0.06837594 0.04062415 0.047666796 -0.013702072 0.038258336 -0.028949933 -0.042432874 0.037276633
0.04719755 -0.052862063 0.025673408 0.005399069 0.021574643 0.044149555 -0.034370303 0.03922572
0.05583926 -0.053671084 0.047091506 0.010246001 -0.033399846 0.03132232 0.044546716 0.04761343
-0.03659689 0.02556971 -0.011306173 0.045571536 -0.022021664 -0.02565805 0.05035768 -0.017752074
0.040424217 -0.003658943 0.01670271 -0.005297023 0.03975614 0.049343698 0.034730013 0.019444093
-0.046839625 0.0048685786 -0.014230404 -0.027676588 -0.0023728511 -0.019223262 -0.035506736 0.020963922
0.0003783182 -0.003088333 -0.012853792 0.016240567 0.0032697362 -0.044733904 0.009805945 0.056942906
0.03965573 0.03906714 0.021005146 0.051287904 0.015656525 0.0102994535 -0.033916153 0.02875192
-0.05628956 -0.028751854 0.064154424 0.014930644 -0.05235593 0.010835542 -0.03502121 -0.012781387
-0.019221282 0.055338603 0.025852652 -0.050282456 0.067557305 0.022898337 -0.040346745 -0.0017777348
0.020822505 0.0005201855 0.006072402 -0.04599377 -0.019201366 0.062414743 -0.03441659 -0.014708642
0.057622194 0.023084743 0.055436343 0.024724226 -0.029300274 -0.0061534415 0.010251538 0.061877172
0.027075652 0.053900536 -0.006713522 -0.0016097515 0.06747194 -0.018359171 -0.0013769666 -0.0125309825
0.06287364 -0.042399377 -0.0061853724 0.003878253 -0.039981026 0.01975963 -0.019330284 -0.0073653017
0.011655166 0.020359803 0.012631897 -0.013532833 0.047584433 0.0035021403 0.029568307 0.03499233
0.04549221 0.058040272 -0.045743626 -0.011562967 -0.03770423 -0.02750217 -0.03716638 0.058218427
0.049645673 -0.008443586 -0.002848495 0.057054803 0.007037884 0.071417004 0.08279541 0.055933274
-0.020070395 0.030345792 -0.020500593 0.04461144 0.061033867 0.07116087 -0.035670366 -0.007407539
-0.020368272 -0.00030133477 0.075019106 -0.032971706 0.08178437 0.07284239 -0.0028815395 0.071102396
0.021271704 -0.040662248 0.024952289 0.006211912 0.0057754116 -0.023866912 0.07138148 0.012805826
0.010932512 0.068580344 0.05036313 0.047068547 0.06517249 0.087404944 0.028735349 0.043953165
-0.0009067663 0.038479142 0.054397736 0.045534264 0.034836814 0.035521466 0.011374745 0.03340439
0.079657726 0.05041541 0.055869844 0.08251428 0.056794323 0.04319154 0.039466105 -0.002320713
-0.031714696 0.018603267 -0.011348782 -0.028012488 0.034540944 0.077394955 -0.03077288 0.013973759
0.05361616 0.01446284 0.067816496 -0.041926816 0.018143687 -0.00175851 0.08009143 -0.037454687
0.05434799 0.005918005 0.00094958907 0.05331393 -0.032170735 -0.013521726 0.030462379 0.012989073
0.03399142 -0.0020668062 -0.021278057 -0.076600745 -0.054389257 -0.02536246 -0.042491805 -0.07656199
-0.008157429 -0.06489227 0.010344861 -0.009178368 -0.08284835 -0.030837946 -0.04659141 0.018043192
00000000: b8cf de3c fd6e 813c ca22 8cbc 08d8 f9bc
00000010: 9208 78bb 89a9 82bc 65bc 063d 77fe 2fbc
00000020: b41f 6dbd 36a9 26bd 4832 173d 4aa6 3abd
00000030: 834e 383d 4b50 4bbd bf2c f73c db8b 613d
00000040: 05de 06bd fe80 fbbc 8384 11bd df65 1c3d
00000050: 4399 59bc ee59 c53c 5574 17bd 4615 873d
00000060: 4aa6 f0bc 10a3 223c d589 c13c b6fe 863d
00000070: f8a9 0cbd 6717 3c3c aad2 0ab9 5fa0 ad3c
00000080: af08 8c3d 8265 263d 423e 433d a87e 60bc
00000090: c6b4 1c3d 6928 edbc 18ce 2dbd 62af 183d
000000a0: 3852 413d e485 58bd 0a51 d23c acea b03b
000000b0: 4ebd b03c 2ad6 343d e0c7 0cbd 26ab 203d
000000c0: b5b7 643d 36d6 5bbd 06e3 403d d8de 273c
000000d0: 47ce 08bd d54b 003d 9e76 363d 4d06 433d
000000e0: 9fe6 15bd 9277 d13c 873d 39bc 38a9 3a3d
000000f0: c766 b4bc d530 d2bc db43 4e3d cc6c 91bc
00000100: dd93 253d e1ca 6fbb 1fd4 883c a692 adbb
00000110: 56d7 223d 9e1c 4a3d 0f41 0e3d 3849 9f3c
00000120: e8da 3fbd 9988 9f3b a426 69bc 03ba e2bc
00000130: d681 1bbb 1a7a 9dbc 836f 11bd 88bc ab3c
00000140: 0259 c639 a165 4abb b698 52bc f00a 853c
00000150: 1249 563b e63a 37bd 1da9 203c f73c 693d
00000160: 0c6e 223d de04 203d fc12 ac3c 4413 523d
00000170: 1d42 803c 0abf 283c aaeb 0abd 2689 eb3c
00000180: e28f 66bd 0289 ebbc 6563 833d a99f 743c
00000190: 2c73 56bd 8f87 313c 6672 0fbd 0669 51bc
000001a0: f375 9dbc bbaa 623d f1c8 d33c faf4 4dbd
000001b0: 7c5b 8a3d 4b95 bb3c a142 25bd e202 e9ba
000001c0: f593 aa3c 0f5d 083a 00fb c63b f763 3cbd
000001d0: 2f4c 9dbc 9aa6 7f3d 69f8 0cbd 84fc 70bc
000001e0: 4005 6c3d 371c bd3c 3811 633d 768a ca3c
000001f0: 2107 f0bc cfa2 c9bb 11f6 273c eb72 7d3d
00000200: c2cd dd3c cfc6 5c3d 1bfd dbbb 4cfe d2ba
00000210: ba2e 8a3d f965 96bc 557b b4ba c04e 4dbc
00000220: e5c3 803d f8aa 2dbd aaae cabb 4a2a 7e3b
00000230: 25c3 23bd f3de a13c 8b5a 9ebc a158 f1bb
00000240: 4ff5 3e3c 9ac9 a63c 04f6 4e3c d1b8 5dbc
00000250: e5e7 423d 2a84 653b 3c39 f23c 1e54 0f3d
00000260: 0a56 3a3d a3bb 6d3d ab5d 3bbd 9972 3dbc
00000270: c06f 1abd 3b4c e1bc c63b 18bd 7276 6e3d
00000280: 4359 4b3d f756 0abc d1ad 3abb 4cb2 693d
00000290: 0d9e e63b 1443 923d a490 a93d 4a1a 653d
000002a0: ab6a a4bc bd97 f83c dcf0 a7bc 7cba 363d
000002b0: a6fe 793d cabc 913d 171b 12bd f1ba f2bb
000002c0: 5ddb a6bc 78fc 9db9 9ea3 993d 570d 07bd
000002d0: 907e a73d 642e 953d 36d8 3cbb 229e 913d
000002e0: ff41 ae3c 758d 26bd be68 cc3c 4b8d cb3b
000002f0: aa3f bd3b 8b84 c3bc 7430 923d 87cf 513c
00000300: 471e 333c da73 8c3d 9249 4e3d f3ca 403d
00000310: 2879 853d 5d01 b33d 6566 eb3c 3c08 343d
00000320: 0eb4 6dba 4e9c 1d3d 29d0 5e3d 2382 3a3d
00000330: 0cb1 0e3d f57e 113d 235d 3a3c 0bd3 083d
00000340: 9723 a33d 6480 4e3d c7d7 643d 3ffd a83d
00000350: 2aa1 683d 9de9 303d 36a7 213d 1a17 18bb
00000360: 45e7 01bd e165 983c 3ef0 39bc 727a e5bc
00000370: ce7a 0d3d 3f81 9e3d 6817 fcbc 31f2 643c
00000380: 9e9c 5b3d 8cf5 6c3c 60e3 8a3d 74bb 2bbd
00000390: 12a2 943c ce7d e6ba fa06 a43d 166a 19bd
000003a0: ff9b 5e3d d3eb c13b d8ed 783a b55f 5a3d
000003b0: 76c5 03bd 3b8a 5dbc 3d8c f93c 1fd0 543c
000003c0: 963a 0b3d 4173 07bb 524f aebc dae0 9cbd
000003d0: 45c7 5ebd efc4 cfbc e30b 2ebd 88cc 9cbd
000003e0: bda6 05bc 3de6 84bd 7e7d 293c de60 16bc
000003f0: 65ac a9bd dc9f fcbc a2d6 3ebd 51cf 933c

encoder.0.bias f4 [32]
-0.012164359 0.023204047 0.06271758 0.0803907 -0.00642039 0.1836819 0.08771327 0.037885543
0.11136053 -0.042283647 -0.01000323 0.23347259 0.18077715 0.11500717 0.25286943 0.30993873
0.24612896 -0.012062989 -0.0108011775 -0.06944471 0.19215244 0.0879153 0.13846679 -0.04977278
0.10349884 -0.020821087 0.21580595 -0.02908178 -0.07494498 -0.0012393437 -0.010833065 -0.02427065
00000000: 054d 47bc 6a16 be3c 1372 803d e1a3 a43d
00000010: 2362 d2bb 1c17 3c3e 04a3 b33d df2d 1b3d
00000020: fd10 e43d 9e31 2dbd 96e4 23bc 7013 6f3e
00000030: a51d 393e e188 eb3d 1a78 813e 4ab0 9e3e
00000040: 3b09 7c3e d8a3 45bc 6cf7 30bc 0739 8ebd
00000050: 9cc3 443e f00c b43d 3dca 0d3e 8bde 4bbd
00000060: 33f7 d33d fc90 aabc 3cfc 5c3e ea3c eebc
00000070: c17c 99bd 7971 a2ba 2b7d 31bc 3ed3 c6bc

encoder.3.weight f4 [32, 32, 7, 7]
-0.034493882 0.00021425037 -0.0060435855 -0.03168509 0.0060616033 0.008294959 -0.025993751 0.008376196
-0.013295381 -0.0084187 -0.013516797 -0.028785856 -0.030435674 -0.0052928044 0.005535161 -0.0046480135
-0.028586889 -0.019431245 -0.0028625815 0.0070603206 -0.026327914 -0.0217214 -0.02484516 -0.033841327
-0.008810225 -0.010851049 -0.035950325 -0.030645108 0.006993781 -0.012424068 -0.037659395 -0.035225373
-0.037025962 -0.027943581 -0.036400586 -0.03766937 -0.0032929673 -0.036252517 -0.041599557 -0.007427886
-0.012227086 -0.008299958 0.0016575272 -0.03808421 -0.029142246 -0.01793219 -0.03972781 -0.035723783
0.005891921 0.0068974816 -0.023432126 0.0055889618 -0.018124359 0.0059978985 0.00064346334 0.009744868
-0.009293847 -0.035232913 -0.0075701457 0.0063459496 -0.021560019 -0.03616251 0.010037161 0.007932973
-0.028707756 -0.01101819 -0.02201616 -0.022075392 -0.03162891 -0.00898315 0.0058604493 -0.0077108853
0.0064893276 0.006720742 -0.02418118 0.011337835 -0.036214493 -0.017520713 -0.03933483 -0.026699157
-0.019577809 -0.03865272 -0.019806795 0.002831169 -0.02764688 -0.039076176 -0.0014139268 -0.008775088
-0.014664437 -0.0019321012 0.004856587 -0.009969047 -0.030574406 -0.03686671 -0.0021710733 -0.00780878
-0.031383015 0.011464308 -0.013875 -0.01023021 0.0014031646 -0.019702619 -0.02109043 -0.014764427
-0.019439267 -0.009017904 -0.020325694 0.0073857713 0.017349072 0.0029560102 -0.00059395004 -0.027194278
0.0016649162 0.0063610063 -0.012929812 0.009605322 -0.00664451 -0.017080875 -0.0012716091 -0.019639993
-0.037436567 0.010215813 -0.034474637 -0.019688483 -0.020243352 -0.0021160424 -0.024375182 0.007607408
-0.004250961 -0.0021783079 -0.032553565 -0.023991164 -0.03367311 -0.005192908 -0.025058607 0.009752015
-0.010541485 0.005008211 0.0062438636 0.0024465765 -0.012244015 0.008321837 -0.03503748 -0.028706748
-0.015747655 -0.018783094 -0.018192494 0.0062112655 -0.022477407 0.004530508 0.00519608 -0.0135808615
-0.021924842 -0.010443795 -0.031389616 -0.023185477 -0.001561633 -0.015933486 -0.02987498 -0.03094619
-0.036647964 -0.025719915 0.003668848 0.0074706995 -0.00685448 -0.022805423 0.010346886 0.0026571378
-0.0100965155 0.004938959 0.0001187878 -0.025804441 0.011994257 -0.032025576 -0.016915292 -0.020502755
-0.003640959 -0.015017017 -0.039144963 -0.028547117 0.009949316 0.00565408 -0.016221475 -0.01990212
-0.0016929235 -0.021615634 -0.03238755 -0.0075457194 -0.0025149607 -0.03593843 -0.031945128 -0.006289075
0.004714477 -0.023106854 -0.005561869 -0.019022098 -0.015260253 -0.009379723 -0.021062661 0.009446422
0.017829057 -0.003328802 -0.024546122 -0.02837543 -0.03334614 0.013936285 -0.027639631 -0.0039286353
-0.01937633 -0.032229297 -0.006257818 -0.031504113 0.011535202 0.0114952605 -0.027208332 0.005542351
0.010804917 0.008622506 -0.015732292 0.0083982255 -0.020591326 -0.011280624 -0.03204833 -0.02390475
-0.02678696 -0.008387287 -0.009721942 0.008285922 -0.026862372 -0.03388387 -0.024567347 -0.010422219
0.0009406216 0.008819099 -0.026612675 -0.012408478 -0.020505 -0.0014822363 0.0017716174 -0.005105855
-0.03323934 -0.016137486 -0.027429884 -0.010917344 -0.012072748 0.006284591 -0.015081477 -0.015514386
-0.010678361 -0.03332262 0.0002782976 -0.030075246 -0.02092407 -0.008161307 0.0030210263 -0.032951586
00000000: 7549 0dbd 65a8 6039 4509 c6bb 3ac8 01bd
00000010: 6aa0 c63b 94e7 073c d9f0 d4bc 503c 093c
00000020: dfd4 59bc 96ee 09bc 8e75 5dbc 51d0 ebbc
00000030: 3c54 f9bc 436f adbb 4c60 b53b 5d4e 98bb
00000040: 0d2f eabc 462e 9fbc 269a 3bbb 435a e73b
00000050: a3ad d7bc 14f1 b1bc 1488 cbbc 349d 0abd
00000060: c358 10bc 99c8 31bc a640 13bd 730b fbbc
00000070: 162c e53b 518e 4bbc bd40 1abd 7b48 10bd
00000080: 89a8 17bd f0e9 e4bc c818 15bd 334b 1abd
00000090: d3ce 57bb 857d 14bd 4c64 2abd a065 f3bb
000000a0: 1e54 48bc 8cfc 07bc 6241 d93a 30fe 1bbd
000000b0: b8bb eebc 87e6 92bc a1b9 22bd 1a53 12bd
000000c0: 0411 c13b 4504 e23b bbf4 bfbc 9c23 b73b
000000d0: 8979 94bc 058a c43b 18ae 283a f0a8 1f3c
000000e0: 3845 18bc 6350 10bd fc0e f8bb aff1 cf3b
000000f0: a39e b0bc 241f 14bd e872 243c 4df9 013c
00000100: 872c ebbc a385 34bc 3c5b b4bc 74d7 b4bc
00000110: 518d 01bd 102e 13bc 0309 c03b 98ab fcbb
00000120: 6da4 d43b ac39 dc3b 9c17 c6bc 54c2 393c
00000130: a655 14bd 9987 8fbc 8f1d 21bd 31b8 dabc
00000140: a461 a0bc 5152 1ebd dc41 a2bc 228b 393b
00000150: b67b e2bc 570e 20bd 8353 b9ba 63c5 0fbc
00000160: 1b43 70bc 8f3e fdba 0124 9f3b 3755 23bc
00000170: 2d77 fabc 8c01 17bd 9148 0ebb cbe0 ffbb
00000180: 7a8b 00bd cbd4 3b3c f853 63bc 9c9c 27bc
00000190: 64ea b73a 6367 a1bc d6c5 acbc 7fe6 71bc
000001a0: 193f 9fbc d5bf 13bc 1282 a6bc 5704 f23b
000001b0: a41f 8e3c 9fb9 413b 50b3 1bba 89c6 debc
000001c0: 5139 da3a fd6f d03b 90d7 53bc a45f 1d3c
000001d0: 31ba d9bb 31ed 8bbc 1fac a6ba 0de4 a0bc
000001e0: 1657 19bd 3a60 273c 4735 0dbd be49 a1bc
000001f0: 63d5 a5bc 4dad 0abb 76ae c7bc 9047 f93b
00000200: a54b 8bbb f1c1 0ebb e356 05bd 1e89 c4bc
00000210: d1ec 09bd 4529 aabb b547 cdbc eac6 1f3c
00000220: 31b6 2cbc eb1b a43b 5399 cc3b be56 203b
00000230: 1f9b 48bc 5058 083c 7683 0fbd 6a2a ebbc
00000240: 3a01 81bc 01df 99bc 6d08 95bc df87 cb3b
00000250: 8a22 b8bc a874 943b e143 aa3b 4382 5ebc
00000260: ba9b b3bc 731c 2bbc 6692 00bd 78ef bdbc
00000270: b5af ccba f186 82bc 60bc f4bc dd82 fdbc
00000280: 2d1c 16bd 92b2 d2bc 0e71 703b c5cc f43b
00000290: 8c9b e0bb 70d2 babc fc85 293c 6023 2e3b
000002a0: db6b 25bc fed6 a13b b71d f938 d663 d3bc
000002b0: 8f83 443c 402d 03bd f091 8abc 65f5 a7bc
000002c0: 289d 6ebb ef09 76bc 7856 20bd a5db e9bc
000002d0: 7502 233c dc45 b93b e6e2 84bc c509 a3bc
000002e0: 16e5 ddba 4513 b1bc cfa8 04bd 1542 f7bb
000002f0: 0ad2 24bb 2d34 13bd e5d8 02bd 9614 cebb
00000300: e67b 9a3b 964a bdbc 5740 b6bb 3bd4 9bbc
00000310: 2406 7abc 69ad 19bc 9a8b acbc 2ac5 1a3c
00000320: 3e0e 923c 0828 5abb f314 c9bc 9773 e8bc
00000330: f695 08bd 0455 643c 826c e2bc c8bb 80bb
00000340: 1cbb 9ebc de02 04bd 620e cdbb 750a 01bd
00000350: 25fe 3c3c 9e56 3c3c 02e4 debc 9c9c b53b
00000360: 1b07 313c 6945 0d3c 02e1 80bc b698 093c
00000370: 24af a8bc 5ed2 38bc 1c45 03bd e5d3 c3bc
00000380: 5470 dbbc d56a 09bc c848 1fbc adc1 073c
00000390: 7a0e dcbc d0c9 0abd 7641 c9bc f4c1 2abc
000003a0: 0c94 763a fb7d 103c d302 dabc ee4c 4bbc
000003b0: 1afa a7bc 9947 c2ba 9e35 e83a 044f a7bb
000003c0: f925 08bd c332 84bc a3b4 e0bc a9de 32bc
000003d0: c6cc 45bc f8ee cd3b 4d18 77bc 0d30 7ebc
000003e0: 4bf4 2ebc 4d7d 08bd 79e8 9139 5d60 f6bc
000003f0: f568 abbc 01b7 05bc 69fc 453b 3ef8 06bd

encoder.3.bias f4 [32]
-0.028492646 -0.017312704 -0.001984471 0.21573554 0.11942493 0.008797884 0.10056614 0.048147384
0.077682905 0.059198912 0.032236353 0.05089844 -0.019588003 0.033715256 -0.026887389 0.11635302
-0.038546737 -0.0116531635 0.002272058 0.015125278 0.40571895 0.037650414 0.15769109 0.019375185
0.027293496 0.16697319 0.0064113494 0.028221682 -0.02795978 0.06641551 0.045591652 -0.016538525
00000000: 6969 e9bc 5fd3 8dbc e60d 02bb c7e9 5c3e
00000010: 0f95 f43d 0025 103c 9ff5 cd3d 3136 453d
00000020: 3718 9f3d 8f7a 723d 440a 043d e27a 503d
00000030: 0577 a0bc 0219 0a3d f142 dcbc 7e4a ee3d
00000040: 2fe3 1dbd e9ec 3ebc cfe6 143b 04d0 773c
00000050: 65ba cf3e 5237 1a3d c679 213e b5b8 9e3c
00000060: 9c96 df3c 05fb 2a3e 4c16 d23b 2831 e73c
00000070: e90b e5bc db04 883d 50be 3a3d cd7b 87bc

encoder.6.weight f4 [16, 32, 5, 5]
0.0139693925 -0.011695422 -0.023247587 -0.015261395 0.007818369 -0.030880233 0.013774443 -0.016184114
-0.017445503 -0.030163724 0.012007961 -0.041153178 0.0089993235 0.020086532 -0.044844724 0.018586643
0.002504576 -0.007518935 0.01884141 -0.035746288 -0.037450954 0.006941958 -0.023751583 -0.012127659
-0.029965036 0.04126046 0.11242495 0.07518184 0.063045904 0.030948916 0.008137668 0.055695757
0.028091786 0.016554901 0.052891485 -0.058088567 -0.020057354 -0.030084869 -0.040631022 0.048822917
0.01991515 0.034219764 -0.0023053137 0.018749291 0.026973026 0.015280178 -0.017354434 -0.034947775
-0.059531175 0.028658096 0.060956065 -0.094897635 -0.094509274 0.006966209 0.06600481 0.014962696
-0.029153299 -0.0003384598 0.0028713983 -0.012464867 0.08907724 -0.06472889 0.0066164494 -0.008902262
-0.10805112 -0.007675104 -0.016779402 -0.06797854 -0.11923559 -0.054493986 -0.0009866856 0.046601847
0.015498085 0.06901231 -0.024221744 -0.16335113 0.07254972 0.16255645 0.2560757 -0.02875445
-0.020270005 -0.046763632 -0.07480994 -0.056403436 -0.0010206866 -0.0050451276 0.016518597 -0.11926555
-0.2778304 0.1923707 0.04183506 0.07602277 0.09096581 -0.20814963 -0.05223082 0.0018561662
-0.01090796 0.06545784 0.07757412 -0.046862286 0.047889553 0.023810238 0.0020834766 -0.054645114
-0.03609966 0.013658107 0.030044612 0.102996334 0.14492631 -0.118696086 -0.046207156 -0.054544482
-0.036857642 0.0826613 -0.1356541 -0.026864678 -0.057526883 -0.008629693 0.08310835 -0.09395966
-0.00051918614 -0.08369026 -0.06420077 -0.048206165 -0.024362853 -0.032779645 0.0023898175 -0.007808928
0.01237407 0.009309824 0.02380236 -0.022743117 0.031652063 0.014779541 0.011429792 -0.023425117
-0.0015582506 -0.012255961 -0.00042414223 0.0020178447 -0.02250416 0.006096704 0.017957116 0.024861483
-0.0113141 -0.024677606 0.01832152 0.008010734 0.007681458 -0.01567388 -0.023726804 0.028852135
0.11767172 0.17288406 -0.049123168 0.01036679 0.06710006 0.08614058 -0.011508066 -0.06628991
-0.0038312539 0.08693849 0.00012659925 -0.03997359 -0.1393981 -0.04803699 -0.001029931 -0.16008894
-0.052550923 -0.06637041 -0.085386954 0.10763534 -0.14901684 -0.05286015 0.078461014 0.004570292
-0.0340987 -0.06129641 0.04526356 0.028994467 0.022095464 -0.030249167 -0.0958383 0.0023282247
-0.001829735 0.07244023 0.032789867 0.062398884 -0.03224422 -0.14304516 0.033580955 -0.017741775
0.025504174 -0.003342812 -0.074396536 0.007740939 0.01970385 0.07307 0.006208069 -0.025725696
-0.08523311 -0.013629864 -0.009822738 0.074914016 -0.08033369 0.03639345 -0.011432165 0.011028531
0.105571724 -0.01956333 -0.009323327 -0.064485416 -0.08204381 0.07339473 -0.14016826 0.02418395
-0.08684943 -0.13300735 -0.017899392 -0.18624051 0.017435798 -0.062466927 -0.23410048 -0.17046875
0.010912967 0.016315607 -0.0012501228 0.035286654 0.041541934 0.09844182 0.044112388 0.0047080684
0.006481479 -0.10793087 0.06852608 -0.009525755 -0.00065447117 0.0114438655 -0.11476583 0.0145468805
0.020491835 0.10076004 0.060992736 -0.022830613 -0.0013507109 0.0075788675 -0.01709482 -0.01188005
0.035928167 0.061843086 -0.00515523 0.017615072 -0.055610057 -0.01316932 -0.0089186495 0.0013319439
00000000: e1df 643c 289e 3fbc b971 bebc ee0a 7abc
00000010: 9e18 003c 8bf8 fcbc 34ae 613c 8c94 84bc
00000020: dfe9 8ebc ea19 f7bc 0abd 443c 3c90 28bd
00000030: e671 133c 838c a43c 1aaf 37bd 0443 983c
00000040: d023 243b 6661 f6bb 4d59 9a3c b36a 12bd
00000050: 2c66 19bd 5d79 e33b ae92 c2bc 17b3 46bc
00000060: 3c79 f5bc ba00 293d 0d3f e63d f0f8 993d
00000070: 361e 813d 9588 fd3c da53 053c 3c21 643d
00000080: bf20 e63c 259e 873c bea4 583d 47ee 6dbd
00000090: 524f a4bc 8b74 f6bc b76c 26bd 8afa 473d
000000a0: 1925 a33c 062a 0c3d bf14 17bb 1d98 993c
000000b0: 89f6 dc3c b659 7a3c e32a 8ebc 6625 0fbd
000000c0: f6d6 73bd 62c4 ea3c 11ad 793d b159 c2bd
000000d0: 148e c1bd cc44 e43b 882d 873d 1826 753c
000000e0: e6d2 eebc 4e73 b1b9 122e 3c3b 7139 4cbc
000000f0: 216e b63d 9590 84bd cdce d83b cbda 11bc
00000100: e849 ddbd 707f fbbb f574 89bc 5538 8bbd
00000110: ca31 f4bd 1635 5fbd ad53 81ba 94e1 3e3d
00000120: aeeb 7d3c 5356 8d3d ae6c c6bc 8545 27be
00000130: f394 943d 3375 263e 5b1c 833e 748e ebbc
00000140: 480d a6bc 398b 3fbd f435 99bd 4a07 67bd
00000150: 8fc8 85ba 9951 a5bb 0252 873c 7f41 f4bd
00000160: c93f 8ebe d3fc 443e 3d5b 2b3d d3b1 9b3d
00000170: 484c ba3d 2d25 55be fcef 55bd 9a4a f33a
00000180: 4db7 32bc c30e 863d 2edf 9e3d abf2 3fbd
00000190: d627 443d b00d c33c f08a 083b 8ed3 5fbd
000001a0: 3ddd 13bd 41c6 5f3c 1e20 f63c beef d23d
000001b0: 9067 143e ef16 f3bd b743 3dbd 096a 5fbd
000001c0: 0af8 16bd 544a a93d e9e8 0abe 5013 dcbc
000001d0: 4fa1 6bbd 8e63 0dbc b634 aa3d ec6d c0bd
000001e0: fe19 08ba cd65 abbd b17b 83bd d473 45bd
000001f0: 9b94 c7bc f343 06bd 7c9e 1c3b 09e2 ffbb
00000200: 9cbc 4a3c 3b88 183c 2bfd c23c c64f babc
00000210: 98a5 013d e325 723c 0644 3b3c 08e6 bfbc
00000220: 373e ccba 3acd 48bc 685f deb9 d13d 043b
00000230: a55a b8bc dcc6 c73b cd1a 933c 4faa cb3c
00000240: c65e 39bc b128 cabc 0317 963c 743f 033c
00000250: bdb4 fb3b 8266 80bc b75e c2bc 505b ec3c
00000260: dffd f03d 8508 313e 6035 49bd 78d9 293c
00000270: c26b 893d 796a b03d 548c 3cbc 01c3 87bd
00000280: c615 7bbb cf0c b23d babf 0439 59bb 23bd
00000290: 60be 0ebe 6fc2 44bd c0fe 86ba 5bee 23be
000002a0: a33f 57bd 36ed 87bd 5bdf aebd eb6f dc3d
000002b0: df97 18be e283 58bd 2bb0 a03d 63c2 953b
000002c0: 14ab 0bbd f211 7bbd 4866 393d ce85 ed3c
000002d0: 8c01 b53c 1acd f7bc df46 c4bd 2195 183b
000002e0: b8d3 efba 8b5b 943d ab4e 063d f995 7f3d
000002f0: 8412 04bd 6e7a 12be 2f8c 093d 3357 91bc
00000300: 21ee d03c 1413 5bbb 365d 98bd b4a7 fd3b
00000310: f869 a13c b9a5 953d 0f6d cb3b b2be d2bc
00000320: b28e aebd cb4f 5fbc 8def 20bc 856c 993d
00000330: fd85 a4bd 4c11 153d fa4d 3bbc 03b1 343c
00000340: fd35 d83d 4743 a0bc dec0 18bc ee10 84bd
00000350: 9606 a8bd fa4f 963d 4588 0fbe 6b1d c63c
00000360: 1dde b1bd 1433 08be bfa1 92bc d5b5 3ebe
00000370: 85d5 8e3c 52dd 7fbd 09b8 6fbe 5c8f 2ebe
00000380: 4dcc 323c 4fa8 853c 29db a3ba bd88 103d
00000390: e027 2a3d dd9b c93d 31af 343d 2446 9a3b
000003a0: 9662 d43b dc0a ddbd 6757 8c3d ea11 1cbc
000003b0: d190 2bba 0d7f 3b3c 590a ebbd 0a56 6e3c
000003c0: 7ede a73c 485b ce3d 85d3 793d 4407 bbbc
000003d0: 560a b1ba 2658 f83b 700a 8cbc 8ba4 42bc
000003e0: 6a29 133d 2d4f 7d3d 34ed a8bb 7c4d 903c
000003f0: 5fc7 63bd 22c4 57bc 871f 12bc 9f94 ae3a

encoder.6.bias f4 [16]
0.1664921 0.0090651335 0.05069363 0.16630763 0.13178985 0.047542084 -0.004619717 0.09936357
0.058401708 0.2054469 -0.024328705 0.0039954195 -0.014182848 0.03279133 -0.029377338 0.057861336
00000000: e87c 2a3e ed85 143c 20a4 4f3d 8c4c 2a3e
00000010: ebf3 063e 7dbb 423d ff60 97bb 217f cb3d
00000020: a136 6f3d ac60 523e fe4c c7bc 02ec 823b
00000030: 2d5f 68bc 3450 063d bea8 f0bc 0200 6d3d

encoder.9.weight f4 [8, 16, 3, 3]
-0.022575818 -0.052070815 -0.018397752 -0.1086527 0.08859146 0.007931639 0.025028674 0.0071900277
0.030429043 0.023632834 -0.015375025 0.027153788 0.053595554 0.021310832 0.038091637 -0.014208152
0.023475345 0.047703363 -0.0696083 0.042689174 0.027873928 -0.011114455 -0.016853372 -0.0006719059
0.007270209 0.006213915 0.03880383 -0.03465629 0.052769024 -0.018134773 -0.015684716 -0.008706919
0.017385693 -0.012438579 0.048475415 -0.0483269 0.068601586 0.14063622 -0.010732688 0.08706642
0.22858372 0.017855592 -0.10833791 -0.019233428 -0.21836606 -0.0040806103 -0.084557764 0.020194964
-0.024330767 -0.26593655 -0.060719445 0.04130558 -0.06448669 0.037455253 0.02171688 0.02292599
0.02185715 0.008619052 -0.17155357 0.017961765 0.007224837 -0.028390806 0.042393606 0.004899909
0.029851926 -0.012942574 0.021974433 0.08570478 -0.084339656 0.020539364 -0.008025131 -0.07189044
-0.045598697 0.094097376 -0.005668884 0.039985012 0.035364162 -0.046986736 0.0428109 0.043425612
-0.01729033 0.0046119476 -0.012464591 0.0054784096 0.02292293 0.061707534 0.080433615 0.0056364965
0.05142902 0.024522068 -0.005890525 0.08389521 0.012197383 -0.072478995 0.054153588 0.026837666
0.05114408 -0.09440266 0.041780837 -0.010704899 -0.012740942 0.0022701777 0.07905739 0.12699461
0.009401355 -0.004041382 0.028529959 0.020822857 0.058261424 -0.0044845147 0.032216184 -0.037798177
0.09947457 -0.062658496 -0.051107258 0.048953444 -0.08713044 -0.022878656 0.07093536 0.0012578962
0.06528156 0.10449175 -0.037165903 -0.0004034277 0.012740251 -0.04978733 -0.061260674 0.022511214
-0.047420785 -0.020534337 0.049413953 0.018098084 -0.045442555 0.058018792 -0.0070277676 0.06331438
-0.072371274 0.037793443 -0.031806026 0.0014791498 -0.0060695135 0.11694321 -0.0021324945 0.07505794
0.037671484 0.037818495 0.009993034 0.008228907 -0.063321635 -0.04046073 0.022938397 0.030940495
0.019835463 0.06264122 0.124607384 0.0036523365 -0.09461348 -0.001589836 0.09075599 -0.018785203
0.040015053 -0.023515299 -0.003358147 0.11412069 0.016944816 -0.04374619 -0.08443056 0.02122805
0.043341078 -0.049524114 0.052910168 0.012832764 0.18755491 -0.03500026 -0.03610684 -0.10867306
-0.017932173 0.04727695 0.026566127 -0.0016654208 -0.045012012 -0.021991555 0.09019926 0.062582724
0.06453756 0.04157493 -0.100956134 -0.30851945 -0.113457955 0.06354237 0.0458184 0.041277032
-0.035682257 -0.09733452 -0.026740437 0.034102086 -0.012536879 0.021802386 0.033840187 -0.15893123
-0.057860106 -0.02118411 0.119884424 -0.00039822058 -0.005092031 -0.006429044 -0.011502941 -0.12190571
0.018269641 0.036763918 0.051409647 0.05358414 0.0295667 -0.027445318 0.019914461 -0.028135072
-0.064020425 -0.015423725 0.037787188 -0.09163843 -0.11976543 0.01381221 -0.0036482865 0.017069776
0.06510349 -0.046019964 -0.024574747 -0.036806088 0.032242745 0.1304563 -0.076979555 -0.04704343
0.047276296 -0.0014707736 -0.031162916 0.036078144 0.058142472 0.036857724 0.056235775 -0.002454045
-0.017529104 0.016104907 0.0059721163 -0.0067830062 -0.0021001764 0.09322533 0.031262737 0.008205424
-0.019064156 0.06944105 0.007439359 0.04626563 0.07415076 -0.030638814 0.08265182 -0.0047733476
00000000: ecf0 b8bc 3548 55bd e2b6 96bc 4f85 debd
00000010: 706f b53d b5f3 013c ef08 cd3c 539a eb3b
00000020: 5446 f93c a599 c13c 87e7 7bbc 9f71 de3c
00000030: 0387 5b3d 0e94 ae3c fa05 1c3d 4fc9 68bc
00000040: 5e4f c03c 9a64 433d cc8e 8ebd d8da 2e3d
00000050: dd57 e43c 6719 36bc 1510 8abc d722 30ba
00000060: ef3a ee3b 199e cb3b c4f0 1e3d c1f3 0dbd
00000070: 5524 583d 608f 94bc 3c7d 80bc 77a7 0ebc
00000080: 716c 8e3c 2fcb 4bbc 288e 463d 6df2 45bd
00000090: fd7e 8c3d f102 103e 28d8 2fbc e14f b23d
000000a0: da11 6a3e e445 923c 44e0 ddbd 6c8f 9dbc
000000b0: 5a9b 5fbe a4b6 85bb 9f2c adbd e96f a53c
000000c0: 5151 c7bc d628 88be f4b4 78bd 0a30 293d
000000d0: 9911 84bd ae6a 193d 99e7 b13c 49cf bb3c
000000e0: c40d b33c ed36 0d3c bdab 2fbe 8d24 933c
000000f0: 53be ec3b d693 e8bc eba4 2d3d 6a8f a03b
00000100: 078c f43c 170d 54bc ba03 b43c fd85 af3d
00000110: 45ba acbd 2b42 a83c d77b 03bc 4c3b 93bd
00000120: b3c5 3abd 20b6 c03d 0cc2 b9bb 53c7 233d
00000130: 03da 103d 2a75 40bd 7b5a 2f3d 0edf 313d
00000140: 73a4 8dbc d21f 973b 4938 4cbc 3b84 b33b
00000150: dec8 bb3c 0ac1 7c3d 61ba a43d 5cb2 b83b
00000160: 3ca7 523d 81e2 c83c 4e05 c1bb 40d1 ab3d
00000170: 88d7 473c de6f 94bd 27d0 5d3d aada db3c
00000180: 747c 513d 2f56 c1bd 6222 2b3d 9a63 2fbc
00000190: 62bf 50bc 43c7 143b d7e8 a13d e00a 023e
000001a0: 2408 1a3c 926d 84bb a9b7 e93c b294 aa3c
000001b0: 88a3 6e3d d6f2 92bb 1ef5 033d 43d2 1abd
000001c0: 53b9 cb3d 1953 80bd d855 51bd 6883 483d
000001d0: 7271 b2bd 056c bbbc 8f46 913d fedf a43a
000001e0: 57b2 853d c5ff d53d 463b 18bd 2683 d3b9
000001f0: 7cbc 503c cded 4bbd 79ec 7abd 7069 b83c
00000200: 4c3c 42bd a037 a8bc 4966 4a3d 6f42 943c
00000210: f921 3abd 1da5 6d3d 3049 e6bb f8aa 813d
00000220: 6437 94bd 4ccd 1a3d 0947 02bd 08e0 c13a
00000230: c5e2 c6bb ec7f ef3d 52c1 0bbb fab7 993d
00000240: 6a4d 1a3d 91e7 1a3d d3b9 233c 8ad2 063c
00000250: c6ae 81bd 27ba 25bd 4ee9 bb3c ec76 fd3c
00000260: fb7d a23c 0a4a 803d 2832 ff3d 0a5c 6f3b
00000270: b6c4 c1bd 0b62 d0ba 47de b93d 6de3 99bc
00000280: d3e6 233d 28a3 c0bc 5c14 5cbb 1cb8 e93d
00000290: dbcf 8a3c 342f 33bd eee9 acbd 73e6 ad3c
000002a0: 6a86 313d ccd9 4abd 55b8 583d 8340 523c
000002b0: 650e 403e 6f5c 0fbd c4e4 13bd fb8f debd
000002c0: 7ee6 92bc 7aa5 413d 35a1 d93c 404a daba
000002d0: 845e 38bd a227 b4bc 64ba b83d 5f2b 803d
000002e0: 452c 843d 794a 2a3d 17c2 cebd 43f6 9dbe
000002f0: a55c e8bd 8122 823d 13ac 3b3d 1b12 293d
00000300: 8f27 12bd 5257 c7bd c30e dbbc a1ae 0b3d
00000310: 7b67 4dbc eb9a b23c 029c 0a3d debe 22be
00000320: b8fe 6cbd 4c8a adbc f785 f53d 43c8 d0b9
00000330: 0ddb a6bb bbaa d2bb d576 3cbc b3a9 f9bd
00000340: 37aa 953c c395 163d ec92 523d 0b7b 5b3d
00000350: dd35 f23c 01d5 e0bc a723 a33c 867b e6bc
00000360: 241d 83bd cbb3 7cbc bdc6 1a3d eeac bbbd
00000370: 9447 f5bd 9c4c 623c 1718 6fbb ead5 8b3c
00000380: fb54 853d 6e7f 3cbd fb50 c9bc fbc1 16bd
00000390: f810 043d 5696 053e 75a7 9dbd 9db0 40bd
000003a0: caa4 413d f9c6 c0ba 5f49 ffbc adc6 133d
000003b0: cd26 6e3d 20f8 163d 7c57 663d 0bd4 20bb
000003c0: 3299 8fbc 70ee 833c beb1 c33b fb43 debb
000003d0: 1da3 09bb ecec be3d 5b0d 003d 0b70 063c
000003e0: 6f2c 9cbc 1c37 8e3d dec5 f33b 0781 3d3d
000003f0: 5bdc 973d 40fe fabc 5b45 a93d be69 9cbb

encoder.9.bias f4 [8]
0.022065066 -0.03483464 0.077376455 0.024899203 -0.0032946968 -0.06503464 -0.05796096 0.07146195
00000000: ccc1 b43c c4ae 0ebd 8c77 9e3d 6af9 cb3c
00000010: d7eb 57bb e230 85bd 7968 6dbd a55a 923d

decoder.0.weight f4 [8, 16, 3, 3]
0.06507953 -0.056838147 0.04086469 0.05866413 -0.055529505 0.06704414 -0.05469681 0.014419768
-0.0014547998 0.045152783 0.01129059 0.01563636 0.0011135144 0.0042976053 0.026436877 0.005074254
-0.10856268 -0.033661727 -0.004241705 0.10245963 -0.02939097 0.08848139 0.15923545 -0.044911567
-0.0041851946 0.0041409507 0.039312895 0.01513024 0.10812741 0.057079066 -0.011820188 0.119484864
-0.0018591228 0.021106409 -0.04758125 -0.023899972 -0.015679128 0.17687747 0.01397834 0.012267326
-0.02423465 -0.02384785 0.027396938 -0.09981678 -0.0016225717 0.040968835 0.004811586 -0.029446742
-0.014121951 -0.050964832 -0.006667058 0.010855678 0.07873778 0.08571986 0.1467827 -0.020925619
0.02467259 0.009151584 0.08588146 0.005404695 -0.006363407 -0.21037479 0.00052173476 -0.038294192
-0.038483318 -0.0023813029 0.097994685 0.014436097 -0.016149743 0.052583437 0.122830436 -0.011028056
0.0009172185 -0.08261172 0.019196304 -0.0741214 -0.12363737 0.014878542 0.033532374 -0.114671625
0.014968286 -0.026122406 0.0744168 0.022094915 0.022663606 -0.026088994 0.026385201 -0.10672391
-0.015760757 -0.013905186 -0.0026367055 -0.019882875 0.0025161167 0.11542395 -0.013342855 -0.01992266
-0.15505333 0.032075487 -0.09714305 0.0952524 0.055587035 -0.22537807 0.02783842 0.09896801
-0.004777601 0.03027637 0.005250498 -0.04853268 0.0058527095 0.017027287 0.0058934106 -0.06179604
-0.09707113 -0.0759072 -0.013478215 -0.04337113 -0.13277955 0.007601304 0.15827663 0.045543134
-0.010716474 0.15699078 0.09097174 0.007437763 0.01766844 -0.042020112 0.04934084 0.021886319
-0.08960194 0.0009689805 -0.06335906 -0.014593381 0.021614946 0.052124914 -0.24257946 0.06713237
0.015615155 0.04858652 -0.010151158 0.10925885 -0.0066977544 -0.019446846 0.039937958 -0.03752903
-0.009655251 0.03319165 -0.03489067 -0.1290983 0.022486286 0.0032240644 -0.008333843 0.008051506
-0.016757954 -0.014260953 0.0666518 -0.05115981 0.065681204 -0.02430718 -0.0347759 -0.0589096
0.1578084 -0.03596759 0.08726478 0.036048394 -0.00856816 0.040519632 -0.17471118 0.037773293
-0.003223149 0.08507212 -0.029870316 0.017547559 -0.048226967 0.010091667 -0.05221383 -0.028133877
-0.03002588 -0.119544156 0.014114188 0.006540293 -0.02626797 -0.014799438 -0.033788476 0.11659854
0.0026808493 0.01245655 -0.046401016 -0.11789371 0.014309541 0.056698363 -0.056431834 -0.049575802
-0.016776502 0.0142005775 -0.064328656 -0.08598089 0.099164695 0.039067823 -0.05648121 0.016181925
0.037668627 0.052395105 0.04040326 -0.027022429 -3.0332163e-05 -0.021776017 0.02296074 0.17895325
0.060618125 -0.021212112 -0.08130052 -0.067150414 -0.01794777 0.057009038 -0.05446972 -0.0060493723
0.08728748 0.0588058 -0.0040189493 -0.019376934 -0.029348321 -0.04555164 -0.1051781 -0.0029854297
0.03518282 -0.01888155 0.07842041 0.03713985 0.033090748 -0.06747075 -0.0050516916 0.019543061
-0.014009447 -0.0045002517 0.094745725 0.021424618 0.035635296 -0.1453471 0.025848866 -0.017504228
-0.1487472 0.029706407 0.19938496 -0.051424827 0.09513371 -0.16048652 -0.014128218 -0.14159651
0.036508035 -0.06598802 0.026055159 0.04376826 -0.053300023 -0.01472918 0.0065358244 0.13705726
00000000: 6b48 853d 1ecf 68bd bc61 273d cc49 703d
00000010: e872 63bd 704e 893d c309 60bd e440 6c3c
00000020: fbae beba 20f2 383d 2bfc 383c d317 803c
00000030: 58f3 913a edd2 8c3b 2692 d83c ed45 a63b
00000040: 1c56 debd e1e0 09bd 00fe 8abb 5bd6 d13d
00000050: 55c5 f0bc bb35 b53d 9e0e 233e 31f5 37bd
00000060: f523 89bb d0b0 873b 8f06 213d d3e4 773c
00000070: e771 dd3d bdcb 693d 76a9 41bc 7bb4 f43d
00000080: cfad f3ba 59e7 ac3c 8fe4 42bd e0c9 c3bc
00000090: 8471 80bc 5e1f 353e 6805 653c e5fc 483c
000000a0: bf87 c6bc 915c c3bc 8b6f e03c bd6c ccbd
000000b0: 79ac d4ba f0ce 273d 82aa 9d3b 4b3a f1bc
000000c0: c15f 67bc 80c0 50bd 5677 dabb 03dc 313c
000000d0: 4641 a13d e58d af3d 344e 163e 346c abbc
000000e0: 2c1e ca3c 86f0 153c 9ee2 af3d de19 b13b
000000f0: 2084 d0bb 7d6c 57be 07c5 083a 5fda 1cbd
00000100: afa0 1dbd a20f 1cbb 70b1 c83d 6185 6c3c
00000110: 774c 84bc bb61 573d 868e fb3d 05af 34bc
00000120: 7e71 703a 5530 a9bd 9141 9d3c f6cc 97bd
00000130: 9735 fdbd 21c5 733c 3e59 093d f5d8 eabd
00000140: 8b3d 753c a8fe d5bc d667 983d 6500 b53c
00000150: 07a9 b93c 96b8 d5bc c725 d83c 1192 dabd
00000160: b41c 81bc 94d2 63bc 94cc 2cbb 69e1 a2bc
00000170: 6fe5 243b 6463 ec3d fd9b 5abc d934 a3bc
00000180: 4dc6 1ebe 9661 033d eff2 c6bd b113 c33d
00000190: 3baf 633d 82c9 66be 660d e43c bdaf ca3d
000001a0: 6c8d 9cbb 2606 f83c 5f0c ac3b 34ca 46bd
000001b0: 16c8 bf3b cf7c 8b3c 831d c13b d81d 7dbd
000001c0: 3bcd c6bd 3c75 9bbd bbd3 5cbc eda5 31bd
000001d0: 5df7 07be 5c14 f93b 4513 223e 708b 3a3d
000001e0: 2694 2fbc 31c2 203e 644f ba3d 7ab8 f33b
000001f0: 67bd 903c 481d 2cbd 9f19 4a3d f04a b33c
00000200: 3981 b7bd 2e03 7e3a 65c2 81bd 1419 6fbc
00000210: d411 b13c ef80 553d c066 78be b27c 893d
00000220: b5d6 7f3c a902 473d 0b51 26bc 1bc3 df3d
00000230: d678 dbbb fe4e 9fbc fc95 233d 0ab8 19bd
00000240: 0f31 1ebc f8f3 073d 85e9 0ebd 5832 04be
00000250: 2935 b83c d34a 533b ac8a 08bc 77ea 033c
00000260: fa47 89bc c6a6 69bc bd80 883d f38c 51bd
00000270: de83 863d da1f c7bc 2d71 0ebd 314b 71bd
00000280: 8698 213e c052 13bd e1b7 b23d 7ba7 133d
00000290: 7861 0cbc eaf7 253d 7de7 32be 2bb8 1a3d
000002a0: 783b 53bb 4b3a ae3d 98b2 f4bc e6bf 8f3c
000002b0: a489 45bd 8557 253c 2bde 55bd 0479 e6bc
000002c0: d6f8 f5bc 91d3 f4bd 323f 673c f44f d63b
000002d0: ed2f d7bc 5879 72bc c965 0abd 37cb ee3d
000002e0: 30b1 2f3b 8f16 4c3c fe0e 3ebd 4272 f1bd
000002f0: 9172 6a3c 8b3c 683d 1125 67bd ff0f 4bbd
00000300: e06e 89bc 8aa9 683c bebe 83bd c016 b0bd
00000310: dc16 cb3d 9505 203d d758 67bd f58f 843c
00000320: 6b4a 1a3d 409c 563d e47d 253d 245e ddbc
00000330: d371 feb7 9e63 b2bc 2918 bc3c 853f 373e
00000340: b64a 783d 06c5 adbc e380 a6bd 2886 89bd
00000350: 3407 93bc 4f82 693d a41b 5fbd d039 c6bb
00000360: c7c3 b23d 5ade 703d 64b1 83bb 60bc 9ebc
00000370: e46b f0bc 5b94 3abd 9e67 d7bd 33a7 43bb
00000380: dc1b 103d 7bad 9abc e19a a03d f51f 183d
00000390: 2a8a 073d 1b2e 8abd a988 a5bb c518 a03c
000003a0: e187 65bc d976 93bb 0c0a c23d ae82 af3c
000003b0: 51f6 113d dfd5 14be 00c1 d33c 0765 8fbc
000003c0: 3051 18be da5a f33c 922b 4c3e d7a2 52bd
000003d0: 76d5 c23d 9456 24be 0b7a 67bc adfe 10be
000003e0: 7389 153d ba24 87bd a171 d53c 5946 333d
000003f0: 2051 5abd a952 71bc 782a d63b bd58 0c3e

decoder.0.bias f4 [16]
-0.023334067 -0.10598035 -0.10417573 -0.13800904 -0.072243765 0.0026417095 0.03624996 0.10669467
0.011302358 -0.025418121 -0.071224265 -0.07393596 0.09445215 -0.06253773 0.24037494 -0.076949
00000000: 1627 bfbc 3a0c d9bd 165a d5bd 3e52 0dbe
00000010: 8af4 93bd 8820 2d3b d77a 143d bc82 da3d
00000020: 862d 393c aa39 d0bc 07de 91bd bd6b 97bd
00000030: 2170 c13d c813 80bd d924 763e 7097 9dbd

decoder.2.weight f4 [16, 32, 5, 5]
0.09735592 -0.012509156 -0.0451386 -0.066863574 0.01591082 0.012806483 0.030261297 0.05673611
-0.038584203 -0.06424234 -0.016931731 -0.038854085 0.0051404354 -0.009570408 -0.099693246 -0.0992245
-0.1505489 0.06697652 -0.0112013845 0.065622985 0.0031859716 -0.12151943 0.030300668 -0.012812331
-0.0619084 0.08213424 0.07034851 -0.06701665 -0.037653163 0.015513142 -0.022876982 0.008877512
0.049470242 0.036774468 -0.0016253996 0.027062086 -0.05998997 -0.02085753 -0.058300517 -0.05110871
0.021511313 -0.008415719 6.968695e-05 -0.09173523 -0.08934463 0.022293536 -0.00057968206 -0.0018896261
0.045378372 -0.06594962 0.04306493 -0.04855498 -0.101589 -0.12905265 -0.006310891 0.0023571472
-0.028045906 0.021228679 -0.023261977 -0.0067879716 -0.005421418 -0.07366391 0.0072265333 0.030928267
-0.013895834 0.021652058 -0.0022235978 0.022421336 0.022516185 0.026349923 0.010125908 0.05179577
0.0016858749 0.08232144 -0.004329324 0.07699342 -0.030549813 -0.062709235 -0.024928655 -0.020541763
-0.030704023 -0.064738855 -0.040632978 -0.008131548 -0.004517118 -0.16563629 -5.512363e-05 0.022521246
-0.0889489 -0.046457354 -0.057082966 -0.06500545 -0.032369882 0.041565325 -0.0006980451 -0.1163799
-0.022952804 -0.13236222 0.023298282 0.040078316 0.001666461 0.042283658 -0.021560756 0.0444149
-0.020168105 0.08870429 -0.031695284 -0.0118123805 -0.026753066 0.014014734 0.018191021 -0.15010113
-0.015045486 0.008755767 -0.0077054957 -0.025165757 -0.010930759 -0.004174071 -0.009232383 0.036336455
0.0141968895 -0.013546501 -0.0017640076 0.11772342 -0.011513261 0.00908128 0.067422666 -0.026728095
0.007246133 -0.009333842 -0.03680884 0.055856816 0.01877637 -0.013650329 -0.016056472 0.072490476
-0.0055667525 -0.0067401645 -0.004840701 0.015959011 0.055739157 0.03505161 -0.07360153 0.03990745
0.010453629 0.015560106 -0.0059943115 0.047651477 -0.0052190023 0.031511687 0.05168352 0.03266555
-0.020935848 -0.012692407 0.040522587 0.0016357444 -0.08504506 0.0022115922 -0.016966484 0.0010608021
0.08474919 0.016230173 -0.00856287 0.023165915 0.004686627 -0.0079659475 0.036467995 -0.004570442
-0.03837948 -0.036064442 0.0150364125 -0.0076603256 0.04839214 0.004554956 0.039565556 -0.007670446
-0.04975096 -0.027918132 0.00549787 0.037835233 -0.03590833 0.031043982 -0.009140061 -0.009274493
0.0050913016 -0.054191854 -0.044055607 0.041011263 0.06992072 0.020196704 -0.016459297 -0.016797729
0.0128066065 -0.013982743 -0.033967257 -0.019503297 -0.021287119 0.033087894 -0.0069989613 -0.0077006863
-0.088142484 0.023209121 0.0048431563 0.019214671 -0.08302857 0.04175106 -0.049763884 0.0125334915
-0.017175846 0.027121771 -0.011022258 0.029918281 0.060528502 -0.0051117786 -0.02691121 0.0131333
-0.021542624 0.05585504 0.021695547 0.0060160304 -0.026973004 0.037309818 -0.033421267 0.025585348
-0.14561781 -0.02418248 0.04448721 -0.19619717 0.014161243 -0.22611019 0.035385747 0.0562145
-0.010896205 -0.080543734 0.011404637 0.045975864 0.008946313 -0.044661287 0.040314384 0.001389131
0.002926646 0.0328826 0.055868495 0.056413013 0.033250466 -0.005543394 -0.0025514173 0.16356581
0.005310074 -0.0525171 0.017494986 -0.036411114 -0.02318933 0.04026726 0.051262572 0.041630533
00000000: 8a62 c73d 34f3 4cbc 41e3 38bd c5ef 88bd
00000010: 6857 823c 48d2 513c 8ae6 f73c 2064 683d
00000020: 780a 1ebd 7d91 83bd 6ab4 8abc 7625 1fbd
00000030: 1971 a83b 33cd 1cbc f92b ccbd 3736 cbbd
00000040: 7e29 1abe fc2a 893d 0386 37bc 5865 863d
00000050: bccb 503b 2edf f8bd 1b39 f83c d0ea 51bc
00000060: aa93 7dbd ff35 a83d e112 903d 0740 89bd
00000070: 343a 1abd d52a 7e3c 8268 bbbc fc72 113c
00000080: 4fa1 4a3d d3a0 163d 5c0b d5ba 4fb1 dd3c
00000090: 0bb8 75bd 69dd aabc 86cc 6ebd 5e57 51bd
000000a0: 7e38 b03c 15e2 09bc e524 9238 aedf bbbd
000000b0: 51fa b6bd efa0 b63c cef5 17ba 55ad f7ba
000000c0: acde 393d 9810 87bd da64 303d 96e1 46bd
000000d0: e50d d0bd 6126 04be 97cb cebb 5e7a 1a3b
000000e0: 87c0 e5bc c4e7 ad3c e78f bebc a26d debb
000000f0: 27a6 b1bb 1bdd 96bd 8ecc ec3b 475d fd3c
00000100: 5aab 63bc a85f b13c c8b9 11bb f3ac b73c
00000110: dd73 b83c cbdb d73c 23e7 253c cd27 543d
00000120: 93f8 dc3a 2598 a83d 00dd 8dbb baae 9d3d
00000130: 9a43 fabc b36d 80bd 2e37 ccbc 3347 a8bc
00000140: 0187 fbbc ce95 84bd c46e 26bd 2f3a 05bc
00000150: 5504 94bb 8f9c 29be 8c34 67b8 7a7e b83c
00000160: d72a b6bd 114a 3ebd d4cf 69bd 9421 85bd
00000170: 4896 04bd 6740 2a3d 04fd 36ba 9658 eebd
00000180: 8507 bcbc f689 07be 0adc be3c 2929 243d
00000190: 276d da3a a131 2d3d 2fa0 b0bc 66ec 353d
000001a0: 9537 a5bc 98aa b53d ead2 01bd b788 41bc
000001b0: 3f29 dbbc 0e9e 653c 5605 953c 1cb4 19be
000001c0: 5881 76bc 5974 0f3c 627e fcbb 6b28 cebc
000001d0: ed16 33bc a5c6 88bb 6c43 17bc 89d5 143d
000001e0: 129a 683c 25f2 5dbc 4636 e7ba fa18 f13d
000001f0: 1ea2 3cbc a6c9 143c e514 8a3d e1f4 dabc
00000200: f870 ed3b f9ec 18bc dec4 16bd 1eca 643d
00000210: e7d0 993c a1a5 5fbc dd88 83bc e375 943d
00000220: 4e69 b6bb 99dc dcbb be9e 9ebb 79bc 823c
00000230: be4e 643d 4792 0f3d 66bc 96bd ff75 233d
00000240: b345 2b3c d1ef 7e3c ee6b c4bb 322e 433d
00000250: 2a04 abbb 6612 013d 19b2 533d 50cc 053d
00000260: a881 abbc d0f3 4fbc 03fb 253d 7966 d63a
00000270: 1b2c aebd 5cf0 103b 4cfd 8abc 9d0a 8b3a
00000280: fc90 ad3d 24f5 843c 484b 0cbc 72c6 bd3c
00000290: 4792 993b 9b83 02bc 775f 153d a5c3 95bb
000002a0: cd33 1dbd 4fb8 13bd 495b 763c 7803 fbbb
000002b0: d636 463d be41 953b 7e0f 223d 5d58 fbbb
000002c0: aac7 4bbd 91b4 e4bc 7a27 b43b 1ef9 1a3d
000002d0: 9d14 13bd f34f fe3c 32c0 15bc 0bf4 17bc
000002e0: efd4 a63b 47f8 5dbd a773 34bd 6dfb 273d
000002f0: 9832 8f3d 8f73 a53c a6d5 86bc 649b 89bc
00000300: cdd2 513c e017 65bc 4021 0bbd 61c5 9fbc
00000310: 5362 aebc 2c87 073d 8b57 e5bb 0a56 fcbb
00000320: 0c84 b4bd 0e21 be3c 57b3 9e3b 1668 9d3c
00000330: e20a aabd 2903 2b3d 37d5 4bbd 4659 4d3c
00000340: 5cb4 8cbc 7a2e de3c b396 34bc 2f17 f53c
00000350: bcec 773d b580 a7bb e674 dcbc 0d2d 573c
00000360: 287a b0bc 41c8 643d dcba b13c 1f22 c53b
00000370: 7df6 dcbc 2ed2 183d bde4 08bd 5d98 d13c
00000380: d61c 15be 561a c6bc 3938 363d e9e7 48be
00000390: 8f04 683c 6e89 67be a5f0 103d 2d41 663d
000003a0: ff85 32bc 1df4 a4bd 84da 3a3c 3051 3c3d
000003b0: 8e93 123c c1ee 36bd b220 253d 8013 b63a
000003c0: f9cc 3f3b e8af 063d 5dd6 643d 5511 673d
000003d0: a431 083d 5ca5 b5bb ae35 27bb cc7d 273e
000003e0: 2100 ae3b 2c1c 57bd a551 8f3c d223 15bd
000003f0: 8df7 bdbc 48ef 243d b4f8 513d c784 2a3d

decoder.2.bias f4 [32]
0.039724283 0.019173212 -0.04130179 -0.004739565 -0.04896661 0.057574667 -0.03480379 -0.08166254
-0.012357953 -0.030953081 -0.030327305 0.035229392 0.024957499 -0.014997123 -0.050262287 -0.0062660845
-0.030723384 0.040549863 -0.049555346 0.08033572 0.015910093 0.016185062 0.12618366 0.010957403
-0.025342349 -0.01689506 0.05850272 -0.03612701 0.031479426 0.09833129 -0.093249545 -0.1420853
00000000: eeb5 223d 2411 9d3c 112c 29bd 5a4e 9bbb
00000010: 3691 48bd 6ad3 6b3d 6b8e 0ebd b13e a7bd
00000020: 0379 4abc 5191 fdbc f870 f8bc b24c 103d
00000030: ab73 cc3c 7eb6 75bc d4df 4dbd ba53 cdbb
00000040: 9baf fbbc 9d17 263d 8cfa 4abd 0e87 a43d
00000050: e255 823c 8996 843c 4a36 013e ae86 333c
00000060: c29a cfbc 8267 8abc 8ca0 6f3d eaf9 13bd
00000070: 92f0 003d ea61 c93d 9ef9 bebd cf7e 11be

decoder.4.weight f4 [32, 32, 7, 7]
-0.00753795 -0.008173684 -0.009053904 0.007513629 -0.023776328 -0.032431588 -0.00064087944 -0.017579852
0.0024333636 0.030308677 0.033319928 0.017229928 -0.010089726 -0.0012967675 -0.009381438 0.0010913118
0.035529792 0.024461072 0.018220121 -0.004952296 -0.0015046601 -0.027401105 -0.019899685 0.0151706245
0.01812412 0.025707146 0.012659803 -0.015589686 -0.019649517 -0.0061329645 0.016044691 0.017579123
0.0017874598 -0.0010231341 -0.0033576544 -0.03375975 -0.037728094 0.0020361878 0.01610632 -0.0030037488
-0.013261061 -0.0110956775 -0.0032661527 -0.024974246 -0.019423233 -0.01039062 -0.0071276757 -0.037884254
-0.016800936 -0.018144805 -0.026735391 0.0076962193 -0.009276151 -0.02932735 -0.0346412 -0.017880183
-0.008732459 0.012256356 0.018634718 0.022927152 -0.004480728 -0.040392257 -0.024436772 -0.024231363
0.024351718 0.018569088 0.0027981044 -0.008944644 -0.037311994 -0.035667222 -0.017679296 0.017828248
0.029902065 0.010879782 0.024553366 -0.020778636 -0.04096848 -0.007548412 0.02785991 0.044307526
0.024882283 0.01915758 0.0053648124 -0.040229518 -0.06783485 -0.018679757 -0.014711472 -0.009165842
-0.010583826 -0.012069699 -0.04061391 -0.07928817 -0.051707577 -0.04673815 -0.018296052 -0.028122265
-0.033678785 -0.027943423 -0.065856114 -0.1267933 -0.07858489 0.015087309 0.007992609 -0.024321353
-0.09023006 -0.07184993 0.025834212 -0.025108289 -0.0057150596 -0.03260801 -0.0076034362 -0.012580269
-0.077363804 -0.039093923 0.043925103 0.1353146 0.04413399 -0.012484139 -0.03979612 -0.057874892
-0.004522477 0.03737726 -0.0063597714 0.04805841 -0.004873974 -0.034421973 -0.079524815 -0.04075174
0.07192963 0.04991782 0.028334407 0.01468054 -0.1597618 -0.10251244 -0.02389261 -0.017777184
-0.014586052 0.007910473 0.014279691 0.0067991777 -0.050325584 -0.03515221 0.0073659187 -0.068115324
0.0038303211 -0.032577753 -0.0047343057 -0.03553841 0.02068507 0.027520044 0.018037975 0.05935611
0.035910968 0.0450987 0.006344213 -0.006127893 0.025008982 0.0370616 0.018362317 0.006389154
0.013697821 0.013177735 0.010853384 0.06936161 0.07182293 0.061326407 0.020805847 -0.06706102
-0.0013148667 -0.0008582328 0.033952303 0.026156103 0.032366965 0.03257746 0.01809687 0.023061339
0.0031259137 0.048758067 0.012706379 0.0481671 0.006712904 -0.13450396 -0.0025147933 -0.019319981
-0.009544555 0.0418831 0.008020542 0.0019471716 0.031882893 -0.016731441 -0.021551756 0.005628004
0.023072593 0.029333087 0.0630653 -0.06313556 0.002636889 -0.0628366 0.0856998 0.05061312
-0.10629599 0.014091256 -0.16161375 -0.080014184 0.1959996 0.12911443 0.1295028 -0.009048234
-0.21414927 -0.2948929 0.098476745 -0.07458361 0.18321742 0.09248894 0.07180671 0.06540424
-0.16582064 -0.026388658 0.13535874 0.114765756 0.19573313 0.109787 -0.0520363 -0.17467017
-0.06048227 -0.010773859 0.10707771 0.012735154 0.037745778 0.025715759 -0.24674517 -0.1483205
-0.028672475 -0.063867845 0.1002326 0.045716137 -0.101096 -0.20153254 -0.068180025 -0.18311697
-0.004092718 0.09000868 -0.058277346 -0.033931285 -0.24795473 -0.0045038457 0.010518589 0.0029127165
-0.040476117 -0.0055449214 -0.052212626 -0.02111633 0.03558803 0.037805874 0.043378264 0.017310295
00000000: e800 f7bb eaea 05bc d356 14bc e334 f63b
00000010: 93c6 c2bc fcd6 04bd b100 28ba 9f03 90bc
00000020: 1179 1f3b e749 f83c 7a7a 083d c725 8d3c
00000030: 614f 25bc 4cf8 a9ba 9ab4 19bc 590a 8f3a
00000040: b087 113d 9662 c83c 5d42 953c df46 a2bb
00000050: 0438 c5ba 4878 e0bc aa04 a3bc 368e 783c
00000060: 0979 943c cb97 d23c 106b 4f3c e26b 7fbc
00000070: 06f8 a0bc 09f7 c8bb 2870 833c 1802 903c
00000080: 3349 ea3a af1a 86ba 180c 5cbb aa47 0abd
00000090: c688 1abd 9071 053b 67f1 833c 8bda 44bb
000000a0: ec44 59bc a5ca 35bc f30c 56bb ca96 ccbc
000000b0: 791d 9fbc 6b3d 2abc 478f e9bb 852c 1bbd
000000c0: 1ea2 89bc 6aa4 94bc 2e04 dbbc 9130 fc3b
000000d0: fffa 17bc e93f f0bc eee3 0dbd 7679 92bc
000000e0: 9612 0fbc e2ce 483c d6a7 983c b9d1 bb3c
000000f0: 12d3 92bb 5a72 25bd a02f c8bc da80 c6bc
00000100: 417d c73c 331e 983c 6760 373b 8e8c 12bc
00000110: 76d4 18bd cb17 12bd 2cd4 90bc 8c0c 923c
00000120: 2df5 f43c 1d41 323c 2424 c93c f537 aabc
00000130: 91ce 27bd ab58 f7bb 773a e43c cf7b 353d
00000140: eed5 cb3c 5bf0 9c3c 4fcb af3b b5c7 24bd
00000150: ffec 8abd 4a06 99bc 6308 71bc 542c 16bc
00000160: c967 2dbc fdbf 45bc c55a 26bd d661 a2bd
00000170: 53cb 53bd 8170 3fbd 9ae1 95bc aa60 e6bc
00000180: c4f2 09bd 9be9 e4bc 92df 86bd 1ad6 01be
00000190: 1df1 a0bd c330 773c 6ff3 023c 933d c7bc
000001a0: 8aca b8bd 0e26 93bd 45a2 d33c e6af cdbc
000001b0: 6545 bbbb fa8f 05bd 3f26 f9bb 791d 4ebc
000001c0: ea70 9ebd f320 20bd cfea 333d e98f 0a3e
000001d0: d8c5 343d 468a 4cbc 4201 23bd 390e 6dbd
000001e0: 4931 94bb e618 193d a165 d0bb e5d8 443d
000001f0: dbb5 9fbb 0efe 0cbd e8dd a2bd 4ceb 26bd
00000200: d84f 933d a176 4c3d 8f1d e83c a686 703c
00000210: 9998 23be 0bf2 d1bd 6fba c3bc 75a1 91bc
00000220: 56fa 6ebc ee9a 013c 5df5 693c a3cb de3b
00000230: 3322 4ebd c4fb 0fbd ce5d f13b 0c80 8bbd
00000240: 2006 7b3b 4070 05bd 3c22 9bbb b990 11bd
00000250: bc73 a93c b771 e13c 60c4 933c 641f 733d
00000260: 6117 133d 6ab9 383d 1ee3 cf3b 7ecc c8bb
00000270: a3df cc3c e7cd 173d 926c 963c 1c5c d13b
00000280: d36c 603c 6de7 573c 64d2 313c 760d 8e3d
00000290: e617 933d 6631 7b3d 0671 aa3c 4a57 89bd
000002a0: 9b57 acba 07fb 60ba 9211 0b3d 5345 d63c
000002b0: 3993 043d f16f 053d e33f 943c 22eb bc3c
000002c0: 21dc 4c3b 8ab6 473d 6b2e 503c dd4a 453d
000002d0: ecf7 db3b 68bb 09be 3bcf 24bb f044 9ebc
000002e0: c460 1cbc 9d8d 2b3d 9768 033c 3d38 ff3a
000002f0: a397 023d 6010 89bc 4f8d b0bc 1f6b b83b
00000300: bc02 bd3c f14b f03c 6128 813d 374d 81bd
00000310: a8cf 2c3b 7ab0 80bd 6083 af3d b44f 4f3d
00000320: b6b1 d9bd 03df 663c 137e 25be 7ade a3bd
00000330: 1fb4 483e 9336 043e 629c 043e 0b3f 14bc
00000340: f249 5bbe 34fc 96be 2dae c93d 4bbf 98bd
00000350: 599d 3b3e d76a bd3d 650f 933d a8f2 853d
00000360: e3cc 29be 072d d8bc 7b9b 0a3e 4f0a eb3d
00000370: 446e 483e 02d8 e03d 0424 55bd bddc 32be
00000380: 42bc 77bd d784 30bc 8f4b db3d 1ba7 503c
00000390: 519b 1a3d dba9 d23c c4aa 7cbe 54e1 17be
000003a0: 8ae2 eabc 25cd 82bd c046 cd3d d840 3b3d
000003b0: 6b0b cfbd 8c5e 4ebe f8a1 8bbd 0483 3bbe
000003c0: 351c 86bb 7956 b83d 3ab4 6ebd 88fb 0abd
000003d0: d8e7 7dbe ff94 93bb 2956 2c3c 46e3 3e3b
000003e0: 49ca 25bd 2cb2 b5bb e8dc 55bd 27fc acbc
000003f0: c1c4 113d 55da 1a3d 68ad 313d 52ce 8d3c

decoder.4.bias f4 [32]
0.009877418 0.009380793 -0.011197327 0.006096557 0.038194217 0.013837949 -0.00048480366 0.013980669
-0.024223283 -0.033048052 0.019952746 -0.01190506 -0.01970077 0.0122519685 -0.10251283 -0.02997527
-0.020822456 -0.06927945 0.0064916443 -0.03221628 0.017897313 -0.00047769846 -0.030434063 0.011522072
0.021732813 -0.034004062 -0.004281553 0.009376118 -0.007283531 -0.053534083 -0.06147703 -0.024899129
00000000: e5d4 213c e6b1 193c fe74 37bc a0c5 c73b
00000010: 8a71 1c3d 91b8 623c 3f2d feb9 2d0f 653c
00000020: e86f c6bc 655d 07bd f173 a33c 710d 43bc
00000030: 8263 a1bc 7bbc 483c 3ff2 d1bd b38e f5bc
00000040: db93 aabc 62e2 8dbd dcb7 d43b 38f5 03bd
00000050: 639d 923c 9a73 fab9 db50 f9bc 13c7 3c3c
00000060: 0309 b23c d847 0bbd 454c 8cbb 4a9e 193c
00000070: b0aa eebb 8e46 5bbd 57cf 7bbd 42f9 cbbc
